info_data.pth (torch, 8999 bytes, 6 tensors)

lin1.weight f4 [8, 133]
-0.21165602 0.6860678 0.32153526 0.12430806 0.09382416 0.29861388 0.08534787 0.29825634
0.23983341 -0.2179184 -0.4394101 0.06371341 -0.7794613 0.43890694 0.82648724 0.26555088
-0.003923563 -0.68187934 0.43677726 1.0386082 0.022034358 -0.46701297 0.60966533 -0.24559851
-0.2056909 0.17535834 -0.46892393 0.4381973 -0.41984037 0.32554153 0.35294938 -0.3195479
0.06848514 -0.09930209 0.81658703 -0.4565834 0.2794415 0.2410579 0.032123275 0.4754197
0.0023169133 -0.47065002 1.1441108 -0.0021638677 0.20481366 0.06263149 -0.82474124 0.60496634
-0.8821083 -0.8534605 -0.24234164 -0.3328788 0.05310569 0.3083325 -0.38746253 0.28784713
0.343733 0.1259081 0.36526757 0.04458878 0.5271903 0.35815975 -0.28613964 -0.20637327
-0.6775056 0.8263859 0.39672583 0.30379918 -0.0010875808 -0.015154914 0.23302521 0.13420583
0.81442654 0.75883317 -0.19717719 0.17477901 0.26026002 1.1332415 -0.3406505 0.3967195
-0.21400963 0.4137276 0.73303944 0.03996836 0.6884632 -0.1259268 -0.10118229 0.263396
0.4050266 -0.5568533 0.7407287 -0.34245995 0.13611005 -0.18453437 0.03354041 0.38184214
0.28891602 0.22146648 -0.2025236 -0.13332994 0.756286 0.27152583 0.80280733 0.5024042
0.078850955 -0.46767622 0.35223436 0.3178234 -0.49967057 -0.938182 -0.29000804 1.1588286
0.45983166 0.2787559 -0.50589854 -0.15868048 0.20011781 -0.55574423 -0.30264792 0.58453745
-0.06303277 0.1360735 0.3653863 0.24769107 -0.23813075 0.22052823 -0.021900145 -0.25847727
0.29012817 -0.27640057 0.34879324 0.666443 0.19185606 0.12956882 0.57292867 0.23674317
0.06724514 -0.08343825 -0.15732802 -0.049852934 -0.08412943 -0.13767315 -0.12117319 0.57561153
-0.2038292 0.6187945 -0.12370799 0.6767664 0.21965139 0.07310393 0.24640644 -0.40584964
0.56682974 -0.08613849 -0.07947088 0.58562744 0.24651207 -0.33524576 0.3192025 -0.29104385
-0.19284834 0.6948356 -0.19572298 0.43013814 0.036577586 -0.23550595 0.22316381 0.8973397
0.021080492 0.34702373 -0.12746237 -0.21819226 0.46227577 -0.03935366 0.66865546 0.49686503
0.1756401 -0.00012301911 -0.098611124 0.7782878 0.41182032 0.8787391 0.83243024 0.5715441
0.5965371 -0.16465867 0.25445157 -0.06612588 -0.18587843 0.15908544 0.13430767 0.0035557495
0.08853127 0.2861344 -0.0740978 0.38196337 -0.12699337 0.27440533 0.74649704 0.41124153
-0.04314926 -0.7028316 0.055774476 0.23791659 -0.12859526 -0.1193589 -0.33254495 0.24830686
0.34164563 -0.25777572 -0.71937126 0.5257683 0.37689334 -0.47446626 -0.25854024 -0.3346629
0.5508356 0.9015233 0.09967707 -0.30140612 -0.053700212 0.43627176 -0.23313221 -0.3278987
0.56236815 -0.18915641 0.17098898 -0.14195679 -0.17459033 -0.07769082 -0.43027636 -0.1703488
0.1445462 0.64388806 -0.116066664 -0.43272138 0.22547594 -0.026710596 -0.081160195 0.42029518
-0.124210835 -0.48164275 0.13249932 -0.33297843 0.8746511 0.42462924 0.15393461 0.6058589
0.14802079 0.15739696 -0.4468248 0.36271885 0.608037 0.5695838 0.1619451 0.27256992
00000000: 5bbc 58be 24a2 2f3f 45a0 a43e 3995 fe3d
00000010: e226 c03d ebe3 983e ddca ae3d 0eb5 983e
00000020: e496 753e 0026 5fbe 5cfa e0be 2d7c 823d
00000030: c78a 47bf 69b8 e03e ab94 533f 49f6 873e
00000040: 3b91 80bb a58f 2ebf 45a1 df3e 1df1 843f
00000050: 6681 b43c 531c efbe 0713 1c3f 2d7e 7bbe
00000060: a3a0 52be 2391 333e cc16 f0be 665b e03e
00000070: 51f5 d6be 61ad a63e c8b5 b43e c89b a3be
00000080: f041 8c3d e55e cbbd d90b 513f 4dc5 e9be
00000090: f512 8f3e e2d7 763e b293 033d 366a f33e
000000a0: 5bd7 173b 0af9 f0be 3972 923f adcf 0dbb
000000b0: acba 513e f044 803d 3e22 53bf 13df 1a3f
000000c0: d9d1 61bf 637c 5abf 6828 78be 176f aabe
000000d0: 5a85 593d c2dd 9d3e 7d61 c6be b360 933e
000000e0: c6fd af3e 0eee 003e 5a04 bb3e b9a2 363d
000000f0: f2f5 063f b760 b73e e580 92be 8453 53be
00000100: 0271 2dbf 078e 533f a61f cb3e 918b 9b3e
00000110: 288d 8eba 514c 78bc 299e 6e3e 416d 093e
00000120: 427e 503f e442 423f d1e8 49be 45f9 323e
00000130: cd40 853e 0f0e 913f be69 aebe d11e cb3e
00000140: 5725 5bbe 1bd4 d33e 79a8 3b3f ddb5 233d
00000150: 203f 303f f4f2 00be a938 cfbd d7db 863e
00000160: a65f cf3e f08d 0ebf 65a0 3d3f e956 afbe
00000170: 6f60 0b3e 94f6 3cbe ab61 093d d080 c33e
00000180: cdec 933e 1cc8 623e 5962 4fbe a587 08be
00000190: f69b 413f 6f05 8b3e c884 4d3f 909d 003f
000001a0: 9c7c a13d 4273 efbe 1058 b43e c0b9 a23e
000001b0: d2d4 ffbe b22c 70bf ef7b 94be 7f54 943f
000001c0: 0e6f eb3e 18b9 8e3e 9182 01bf 237d 22be
000001d0: afeb 4c3e 4145 0ebf abf4 9abe 3fa4 153f
000001e0: 5317 81bd da56 0b3e ea13 bb3e baa2 7d3e
000001f0: 8cd8 73be 27d2 613e ef67 b3bc 2257 84be
00000200: ae8b 943e 6084 8dbe 0795 b23e 029c 2a3f
00000210: ea75 443e b0ad 043e 74ab 123f cd6c 723e
00000220: d2b7 893d ace1 aabd 991a 21be 9732 4cbd
00000230: 0d4c acbd 31fa 0cbe a629 f8bd 475b 133f
00000240: 9ab8 50be 5169 1e3f 9d5a fdbd 9040 2d3f
00000250: 4bec 603e 83b7 953d f851 7c3e 86cb cfbe
00000260: c11b 113f 6069 b0bd a1c1 a2bd aeeb 153f
00000270: a96d 7c3e 55a5 abbe 836e a33e b303 95be
00000280: 097a 45be bfe0 313f 9b6b 48be 113b dc3e
00000290: 61d2 153d 7928 71be 0e85 643e 0eb8 653f
000002a0: ffb0 ac3c 18ad b13e 7f85 02be cb6d 5fbe
000002b0: 69af ec3e 4e31 21bd 012d 2b3f 1865 fe3e
000002c0: 00db 333e b1fe 00b9 a1f4 c9bd df3d 473f
000002d0: 1dda d23e 0cf5 603f 261a 553f b750 123f
000002e0: a8b6 183f 489c 28be 7a47 823e 016d 87bd
000002f0: ea56 3ebe 4be7 223e f387 093e 9407 693b
00000300: e24f b53d 3580 923e 96c0 97bd b490 c33e
00000310: 8d0a 02be db7e 8c3e 6e1a 3f3f 408e d23e
00000320: 47bd 30bd c6ec 33bf c773 643d 68a0 733e
00000330: 7aae 03be 7072 f4bd 5543 aabe 2744 7e3e
00000340: 2dec ae3e 2efb 83be b728 38bf c098 063f
00000350: 2af8 c03e 3eed f2be 635f 84be f058 abbe
00000360: 9003 0d3f 3bca 663f 7e23 cc3d e751 9abe
00000370: c1f4 5bbd 035f df3e 36ba 6ebe 57e2 a7be
00000380: 5cf7 0f3f 38b2 41be bc17 2f3e 1f5d 11be
00000390: cfc7 32be 5d1c 9fbd 2f4d dcbe ea6f 2ebe
000003a0: eb03 143e d9d5 243f 5cb4 edbd a88d ddbe
000003b0: 2ae3 663e 2ed0 dabc 5137 a6bd ee30 d73e
000003c0: 4062 febd e199 f6be e7ad 073e 267c aabe
000003d0: 22e9 5f3f 0169 d93e 09a1 1d3e 9219 1b3f
000003e0: c392 173e ab2c 213e 38c6 e4be 49b6 b93e
000003f0: 50a8 1b3f 3ed0 113f f0d4 253e 498e 8b3e

lin1.bias f4 [8]
1.1383518 1.037465 0.806164 0.88965243 0.8270531 1.0804404 0.8665874 0.8927488
00000000: 83b5 913f a7cb 843f c460 4e3f 43c0 633f
00000010: c1b9 533f df4b 8a3f acd8 5d3f 2f8b 643f

lin2.weight f4 [8, 8]
-1.3107934 0.6311558 0.7123715 1.6403655 1.6629624 1.1333618 -0.6027358 1.4571422
1.4397968 -0.6435128 1.8562495 0.78118896 -0.5142351 1.5291004 1.5173007 -1.2200125
-0.12385934 -0.05175458 -0.28231883 0.18672165 -0.21460985 0.037045646 -0.2624486 0.09635808
-0.38805187 1.5047027 -0.4747867 -0.47022995 0.85156363 0.20136727 1.8964195 -0.30698693
1.7836441 1.13932 -0.6308746 -1.1240169 -0.50334287 0.850521 -0.2977981 0.69420147
-0.5624053 0.5263861 -0.9854627 -0.1783371 -0.2642317 1.2761855 0.982801 1.3929151
-0.2568399 -0.29010084 0.19668506 0.12081127 0.076915756 0.008786904 -0.23037909 -0.34818572
1.1811615 1.4885966 -0.2645101 -0.031377576 0.34713972 -1.5238831 0.460878 0.49249345
00000000: 14c8 a7bf 6d93 213f fb5d 363f 7ff7 d13f
00000010: f4db d43f 0012 913f e54c 1abf a383 ba3f
00000020: 434b b83f 41bd 24bf 9599 ed3f 00fc 473f
00000030: e9a4 03bf 90b9 c33f e936 c23f 5f29 9cbf
00000040: f7a9 fdbd 9cfc 53bd 188c 90be f633 3f3e
00000050: afc2 5bbe 2dbd 173d aa5f 86be 6357 c53d
00000060: bcae c6be 199a c03f 3e17 f3be fbc1 f0be
00000070: 1300 5a3f 3933 4e3e e0bd f23f 642d 9dbe
00000080: 734e e43f 3dd5 913f ff80 21bf c9df 8fbf
00000090: 14db 00bf bfbb 593f fe78 98be 30b7 313f
000000a0: cbf9 0fbf 3dc1 063f 4947 7cbf 009e 36be
000000b0: 6149 87be 0c5a a33f d998 7b3f 0b4b b23f
000000c0: 8580 83be 1988 94be cf67 493e e66b f73d
000000d0: 0286 9d3d f2f6 0f3c 7fe8 6bbe 6645 b2be
000000e0: 4d30 973f 558a be3f de6d 87be c685 00bd
000000f0: 4cbc b13e 9a0e c3bf 34f8 eb3e 1a28 fc3e

lin2.bias f4 [8]
0.31482372 0.6325658 -0.12449101 0.368555 0.64123815 -0.17749509 -0.4203673 0.6154491
00000000: 9330 a13e d5ef 213f 25f5 febd 3eb3 bc3e
00000010: 2f28 243f 46c1 35be 623a d7be 128e 1d3f

lin3.weight f4 [15, 8]
0.18926455 -0.8521622 0.1539834 0.4010225 -0.47563037 0.5632623 0.23947258 -2.1522918
0.6341037 -1.6374019 -0.2330502 0.14214893 -1.7790964 -0.25163054 -0.13013113 -0.21787041
0.9533346 -0.3771549 0.15120037 -1.2607404 -1.2883589 -1.9908944 -0.33841395 -1.519723
-1.6326867 -1.6270819 -0.046200976 0.13937457 0.5732591 -0.06553289 0.0635053 0.8049662
-1.8761337 -0.122964464 -0.34014025 0.4847217 0.55728436 -0.08904673 -0.20320268 -0.5850091
-0.88268846 0.13985768 0.2922531 0.16916268 0.13225818 0.41985625 0.04087762 -1.7802191
-0.18327339 -0.29260007 0.30763227 -0.20777191 0.5236234 -0.82287174 0.28101933 -0.054886196
-0.16374224 -2.1592157 0.24524826 0.7401799 -0.040128224 0.23277642 -0.30700406 0.080855526
-1.3110936 0.868537 -0.2755671 0.5391379 -1.3616085 -1.5055506 -0.2063754 -0.9859352
0.015576595 0.7866514 -0.1306234 -1.4287673 -0.85971075 -1.3859587 -0.28809485 -2.180619
-1.5952842 0.6868518 -0.20747477 -1.1234683 0.9459462 -1.6241071 -0.30190697 -1.3634936
0.27559644 -0.020959552 -0.121727265 -1.6108619 -1.6715926 0.6020827 0.19929346 -1.6356705
0.021216502 0.23933221 0.12953126 0.77684003 -2.0312464 -0.51926935 0.121786706 -2.2067685
-2.0562198 -0.21100962 0.28731447 0.46158278 0.4725623 -2.4126368 -0.20742425 0.81002367
0.07386521 0.07827296 -0.13212386 0.37960044 -1.7315358 -2.585367 -0.25397095 0.28396922
00000000: 91ce 413e 4d27 5abf d3ad 1d3e d252 cd3e
00000010: d385 f3be f531 103f 4d38 753e 26bf 09c0
00000020: 9f54 223f 6396 d1bf b6a4 6ebe 7d8f 113e
00000030: 6eb9 e3bf b8d5 80be 1841 05be 6c19 5fbe
00000040: bd0d 743f 721a c1be 45d4 1a3e f15f a1bf
00000050: f2e8 a4bf a1d5 febf 9844 adbe 4986 c2bf
00000060: e1fb d0bf 3844 d0bf 3c3d 3dbd 35b8 0e3e
00000070: 1cc1 123f 1c36 86bd 110f 823d 4412 4e3f
00000080: 2625 f0bf cbd4 fbbd dd26 aebe 712d f83e
00000090: 30aa 0e3f 225e b6bd 5d14 50be 28c3 15bf
000000a0: dff7 61bf da36 0f3e 33a2 953e fb38 2d3e
000000b0: b06e 073e 66f7 d63e 4b6f 273d 38de e3bf
000000c0: 05ac 3bbe adcf 95be fa81 9d3e 29c2 54be
000000d0: 2f0c 063f b9a7 52bf c4e1 8f3e 59d0 60bd
000000e0: 0cac 27be 9730 0ac0 5c22 7b3e 6e7c 3d3f
000000f0: 7e5d 24bd f15c 6e3e a32f 9dbe 9597 a53d
00000100: ead1 a7bf 7158 5e3f 2217 8dbe f104 0a3f
00000110: 3049 aebf e2b5 c0bf 1354 53be 4066 7cbf
00000120: fa34 7f3c fc61 493f 24c2 05be d9e1 b6bf
00000130: 0116 5cbf 1867 b1bf 2b81 93be 438f 0bc0
00000140: 4632 ccbf 85d5 2f3f 4474 54be cfcd 8fbf
00000150: 8829 723f bee2 cfbf 8d93 9abe f586 aebf
00000160: fa1a 8d3e 5eb3 abbc 254c f9bd b930 cebf
00000170: bff6 d5bf 1822 1a3f 9613 4c3e a75d d1bf
00000180: 3bce ad3c 8113 753e d8a3 043e fdde 463f
00000190: f1ff 01c0 d6ee 04bf 4f6b f93d b23b 0dc0
000001a0: 1b99 03c0 e812 58be e21a 933e 9454 ec3e
000001b0: b0f3 f13e a468 1ac0 0667 54be b65d 4f3f
000001c0: a546 973d 934d a03d 7a4b 07be fd5a c23e
000001d0: f7a2 ddbf a776 25c0 7b08 82be 6a64 913e

lin3.bias f4 [15]
-0.37814286 -0.5455962 0.3114227 -0.0841816 -0.20272054 -0.43610486 0.16758509 0.33258933
0.3949922 0.021648375 0.01083758 -0.4901147 -0.3193914 0.39036235 0.0024504259
00000000: f19b c1be 31ac 0bbf cc72 9f3e 6767 acbd
00000010: f995 4fbe 2349 dfbe 6d9b 2b3e 2649 aa3e
00000020: 6b3c ca3e ef57 b13c 1b90 313c 50f0 fabe
00000030: 4587 a3be 93dd c73e 5397 203b
